vae_model.pth (torch, 224072 bytes, 22 tensors)

encoder.0.weight f4 [128, 48]
0.13018642 0.13190474 -0.03564619 0.14396289 -0.016643431 0.04885701 -0.05346264 0.0982857
0.123651914 -0.11149612 0.10601321 0.051673796 0.13105711 0.011746529 0.07669905 0.008392268
0.14453276 0.014638283 -0.0446054 0.063016824 -0.040135156 -0.0017210908 -0.047520634 0.10830211
-0.08355003 -0.03967575 -0.020694517 -0.08056132 0.034885462 -0.1320213 0.10440577 -0.08946426
0.11686602 0.043819048 -0.030296208 0.110163815 0.022343839 0.1205048 0.03162477 -0.019150317
0.05291132 -0.021935659 0.07548476 0.14611639 0.09804398 -0.045729864 0.10109215 0.038433176
0.065175496 -0.09055067 -0.15174073 -0.0973887 -0.11779349 0.09915242 0.021097858 0.049856856
0.020571457 -0.021811325 0.10577312 -0.11896947 -0.011610568 -0.09055528 0.028905189 -0.07481064
0.022334425 -0.032030925 0.120084085 -0.10373091 -0.096327804 -0.1077179 0.1195491 0.048900038
0.115361914 -0.12033318 -0.16497281 -0.1382427 -0.10883715 0.042478975 0.05085877 0.11620882
-0.0758358 -0.12122118 0.060717773 -0.054180004 0.09273386 -0.023252267 0.0849628 -0.12251888
-0.09843015 0.017094357 0.004390719 -0.048740942 0.0800669 0.10369118 -0.10647765 -0.114423834
0.101444416 -0.044133745 -0.08295743 -0.17433114 -0.09885502 0.014151913 -0.038842864 -0.12829441
-0.017532893 -0.114452474 -0.15640792 -0.101770505 -0.14899634 -0.09760671 0.10828902 3.0138668e-05
0.016295342 -0.14914277 -0.10573263 -0.07305469 0.0017079912 -0.1433817 -0.072727256 -0.09209905
-0.022462362 -0.06693742 -0.033336483 -0.1290102 -0.10916838 -0.124417886 -0.05984716 -0.12542576
0.13652316 -0.03301665 0.12882353 0.055220198 -0.10091834 0.11800546 -0.032820158 -0.052611794
-0.14563933 -0.17384925 0.013399049 -0.053541187 0.036980964 -0.10977512 0.09600538 -0.13125893
-0.046506602 0.020765807 0.10219236 0.09887827 0.13804816 -0.12744816 0.017414736 -0.045001566
-0.024621757 -0.11860271 0.14682364 -0.1188778 0.056902606 0.08942095 0.06627125 -0.10635358
0.10932218 0.0208947 0.031688143 -0.12691404 0.06675452 -0.041067645 -0.065920584 0.14128046
0.011440937 -0.06441393 -0.089591816 0.0045416127 0.091798656 -0.018802106 -0.08778778 -0.03658294
-0.093312666 0.057013735 0.1214129 -0.1504544 0.032795228 0.10067518 0.02006775 -0.06965424
0.0738594 0.08883577 0.06019389 -0.005098246 -0.019970581 0.046162073 0.006000869 -0.05585612
0.10347263 0.14588661 0.0007541809 -0.07175187 0.0020808561 -0.021113819 0.028019583 0.0369647
-0.13890524 -0.049492583 0.13670528 0.043836232 -0.017969865 -0.06005624 -0.094334275 -0.15889022
-0.0734376 0.058974363 0.08675066 0.06522578 -0.12950678 -0.09430978 -0.06341574 0.118955776
0.0011679126 -0.054361574 0.04292162 -0.07423691 -0.09512318 0.095971495 -0.060173538 -0.047520414
-0.15728866 0.09960893 0.10558681 0.062343393 -0.14562705 -0.16222443 -0.14681043 0.103351586
0.015818076 0.08131591 0.0245723 0.03170141 0.013898336 -0.12613422 -0.11672145 -0.20461172
0.04103316 -0.06500212 -0.06874067 -0.11534786 -0.040291153 -0.1077501 -0.09771929 0.02875474
-0.05014961 0.08625503 -0.051408384 -0.11050902 -0.029703217 -0.07576667 -0.07569432 -0.14319424
00000000: 974f 053e 0912 073e bd01 12bd 026b 133e
00000010: ce57 88bc 4a1e 483d a4fb 5abd 034a c93d
00000020: 373d fd3d 1458 e4bd 741d d93d e7a7 533d
00000030: d633 063e 8374 403c 6414 9d3d b97f 093c
00000040: 6500 143e 69d5 6f3c 27b4 36bd f70e 813d
00000050: c364 24bd 3996 e1ba ffa4 42bd 7fcd dd3d
00000060: 471c abbd 0a83 22bd 8c87 a9bc 55fd a4bd
00000070: 0fe4 0e3d 9730 07be b1d2 d53d 0a39 b7bd
00000080: 7457 ef3d 9a7b 333d c12f f8bc 919d e13d
00000090: 6d0a b73c 38cb f63d fa88 013d 20e1 9cbc
000000a0: 8ab9 583d 69b2 b3bc c197 9a3d 899f 153e
000000b0: 48cb c83d 3d4f 3bbd 6709 cf3d 1b6c 1d3d
000000c0: bb7a 853d a172 b9bd ec61 1bbe ba73 c7bd
000000d0: b73d f1bd 6d10 cb3d 6ad5 ac3c b436 4c3d
000000e0: 7985 a83c aaad b2bc 949f d83d 44a6 f3bd
000000f0: 403a 3ebc 0c75 b9bd 93ca ec3c 5236 99bd
00000100: aff6 b63c dc32 03bd a5ee f53d df70 d4bd
00000110: 8347 c5bd 349b dcbd 29d6 f43d 684b 483d
00000120: de42 ec3d 3e71 f6bd a2ee 28be 7f8f 0dbe
00000130: 03e6 debd 6ffe 2d3d 4951 503d e4fe ed3d
00000140: cd4f 9bbd cf42 f8bd 33b3 783d daeb 5dbd
00000150: 40eb bd3d 8a7b bebc fa00 ae3d 2eeb fabd
00000160: bf95 c9bd 7709 8c3c 05e0 8f3b 95a4 47bd
00000170: 1dfa a33d 0b5c d43d f410 dabd 0b57 eabd
00000180: 17c2 cf3d 96c5 34bd 96e5 a9bd dd83 32be
00000190: 8074 cabd 6ddd 673c b219 1fbd 9c5f 03be
000001a0: 24a1 8fbc 0f66 eabd 6629 20be 0e6d d0bd
000001b0: 7f92 18be 07e6 c7bd a2c6 dd3d 4cd2 fc37
000001c0: cf7d 853c e2b8 18be 598a d8bd b39d 95bd
000001d0: adde df3a a7d2 12be 07f2 94bd 6d9e bcbd
000001e0: fd02 b8bc 7c16 89bd d68b 08bd 401b 04be
000001f0: ac93 dfbd cece febd 4c22 75bd 9c6f 00be
00000200: bacc 0b3e 773c 07bd 51ea 033e 932e 623d
00000210: 46ae cebd d9ac f13d 6e6e 06bd 777f 57bd
00000220: 7a22 15be 8a05 32be af87 5b3c 014e 5bbd
00000230: 5a79 173d c7d1 e0bd 789e c43d be68 06be
00000240: b57d 3ebd 0e1d aa3c 3a4a d13d b180 ca3d
00000250: 7f5c 0d3e c581 02be 59a9 8e3c 9053 38bd
00000260: 91b3 c9bc fae5 f2bd f058 163e 3476 f3bd
00000270: b512 693d 5522 b73d 39b9 873d e8cf d9bd
00000280: 4fe4 df3d 5d2b ab3c 6dcb 013d c1f5 01be
00000290: 98b6 883d 8c36 28bd 5f01 87bd d3ab 103e
000002a0: c572 3b3c 73eb 83bd ea7b b7bd cfd1 943b
000002b0: ef00 bc3d e006 9abc 14ca b3bd fed7 15bd
000002c0: b61a bfbd 3c87 693d 54a7 f83d b810 1abe
000002d0: 4a54 063d ca2e ce3d 1f65 a43c e2a6 8ebd
000002e0: 9943 973d 87ef b53d de8d 763d 300f a7bb
000002f0: 5899 a3bc 7114 3d3d f0a2 c43b 63c9 64bd
00000300: 75e9 d33d 4d63 153e 39b4 453a a5f2 92bd
00000310: f95e 083b e3f6 acbc 5389 e53c 4c68 173d
00000320: 2d3d 0ebe bcb8 4abd 78fc 0b3e 9f8d 333d
00000330: 8a35 93bc 88fd 75bd 5432 c1bd 1eb4 22be
00000340: 7466 96bd 1a8f 713d 54aa b13d 1895 853d
00000350: 6d9d 04be 7c25 c1bd 1de0 81bd 169f f33d
00000360: a514 993a 3eaa 5ebd 95ce 2f3d 8509 98bd
00000370: f1cf c2bd b48c c43d 8778 76bd c4a4 42bd
00000380: 4710 21be c4ff cb3d e63d d83d c95b 7f3d
00000390: 421f 15be 291e 26be 7955 16be ffa9 d33d
000003a0: e994 813c f588 a63d d94b c93c 56d9 013d
000003b0: d9b5 633c 5429 01be a80b efbd bc85 51be
000003c0: 6312 283d d51f 85bd e9c7 8cbd 803b ecbd
000003d0: 5608 25bd 16ac dcbd 0d21 c8bd 0f8f eb3c
000003e0: ad69 4dbd 7aa6 b03d 9991 52bd 8e52 e2bd
000003f0: 2954 f3bc 8e2b 9bbd a005 9bbd 83a1 12be

encoder.0.bias f4 [128]
-0.1121543 0.073308125 0.0062354435 0.19489545 -0.062635906 0.013019671 0.15053885 0.061871327
0.01694849 0.10665509 -0.090071656 0.23728399 0.10140856 0.033026118 0.2005709 0.072668
0.047929503 0.009692674 -0.06899569 0.11001607 0.16051893 0.070241846 0.041773375 -0.024611205
0.09891337 0.11986108 -0.090825886 0.17265813 0.033014733 0.16736892 0.18504374 0.17993167
-0.060012452 0.11608657 0.11213669 0.16615224 -0.027704 0.06230087 0.0031169471 0.039961424
-0.07111544 0.13855651 0.1877288 -0.07352177 -0.015385028 0.029038735 -0.013565458 0.21706231
-0.07778473 -0.039804175 -0.1004485 0.1210492 -0.0640473 -0.0065044826 0.17895183 0.087688945
0.18338908 0.22679147 0.10989187 0.12780452 -0.041115806 0.082281984 -0.05105664 0.07643409
-0.030757288 -0.057860736 -0.025582828 -0.00616855 -0.022260511 -0.06068611 0.01014951 -0.1168089
0.20315169 0.113664255 -0.13220218 -0.12840882 -0.062243205 0.12275178 0.18442053 -0.020687763
0.12756641 0.018489981 0.023311265 0.053734113 -0.10362776 0.07449495 0.056220517 0.088295564
-0.060435116 0.05686489 0.11196867 0.122438185 0.04621214 -0.09342554 0.15349193 -0.09084365
-0.0016914934 0.1318824 -0.02441989 -0.10409253 -0.15035392 0.1524357 0.078921266 0.121924676
0.037908394 -0.062702194 -0.012494268 0.19356716 -0.06668042 0.017571652 0.22180271 0.010373262
0.13825488 -0.025106471 0.12828375 0.06066713 -0.059006233 -0.1481765 0.071102366 -0.02523212
0.12766998 0.10727456 0.013880624 0.056432184 -0.025270239 0.12009513 0.25092113 0.10571468
00000000: 27b1 e5bd 9222 963d b152 cc3b ac92 473e
00000010: 4147 80bd 7550 553c db26 1a3e ca6c 7d3d
00000020: 8fd7 8a3c fc6d da3d 7d77 b8bd 93fa 723e
00000030: 4baf cf3d 6546 073d 7562 4d3e f6d2 943d
00000040: ba51 443d 05ce 1e3c 9d4d 8dbd 1b50 e13d
00000050: 135f 243e f5da 8f3d 8f1a 2b3d 709d c9bc
00000060: 1893 ca3d ba79 f53d ec02 babd 4bcd 303e
00000070: 753a 073d c262 2b3e 1b7c 3d3e 0240 383e
00000080: 9ecf 75bd ccbe ed3d eca7 e53d d023 2a3e
00000090: 80f3 e2bc 322f 7f3d b245 4c3b 97ae 233d
000000a0: f9a4 91bd c2e1 0d3e fb3b 403e 9592 96bd
000000b0: 7c11 7cbc a4e2 ed3c a841 5ebc 9545 5e3e
000000c0: 9a4d 9fbd b409 23bd f1b7 cdbd a5e8 f73d
000000d0: 3b2b 83bd 8e23 d5bb 263f 373e 4396 b33d
000000e0: 59ca 3b3e 063c 683e fd0e e13d 30df 023e
000000f0: 0c69 28bd 7583 a83d c420 51bd 7a89 9c3d
00000100: b5f6 fbbc 61ff 6cbd 1493 d1bc 8c21 cabb
00000110: ad5b b6bc 0092 78bd 214a 263c 8139 efbd
00000120: ff06 503e cec8 e83d 0260 07be 9a7d 03be
00000130: bbf2 7ebd 4965 fb3d bcd8 3c3e 6279 a9bc
00000140: c5a0 023e 4d78 973c 44f7 be3c 4d18 5c3d
00000150: cb3a d4bd cf90 983d 7c47 663d 4ed4 b43d
00000160: d08a 77bd 29eb 683d d44f e53d dfc0 fa3d
00000170: f148 3d3d e455 bfbd fd2c 1d3e 3c0c babd
00000180: 1ab5 ddba 2e0c 073e 390c c8bc 772e d5bd
00000190: 61f6 19be 1b18 1c3e 79a1 a13d a5b3 f93d
000001a0: d545 1b3d 026a 80bd c2b4 4cbc 7836 463e
000001b0: be8f 88bd 6df2 8f3c 4020 633e 9df4 293c
000001c0: b092 0d3e 16ac cdbc d15c 033e 197e 783d
000001d0: 85b0 71bd 95bb 17be 1e9e 913d 97b3 cebc
000001e0: ebbb 023e c4b2 db3d 8f6b 633c 6f25 673d
000001f0: 8803 cfbc 6ff4 f53d bc78 803e f080 d83d

encoder.2.weight f4 [96, 128]
-0.05354762 0.08277934 0.09309509 0.08718512 0.004924687 0.03985999 0.029167525 -0.016123954
-0.07273298 0.00547426 0.041725375 0.07466365 0.04171998 0.048340272 0.07210216 0.0015344617
0.083391555 0.0142872855 -0.012957304 -0.014951197 -0.03185821 -0.04473587 0.036196962 0.11052712
0.03138913 0.02224651 -0.010587771 -0.015755644 -0.008458038 0.06625689 0.044459213 -0.010353655
0.017011842 0.008744125 0.01032171 0.10331568 -0.03161159 0.10569505 -0.02769201 0.099767745
0.04499842 0.05798892 0.005579274 -0.0045127925 -0.048238784 -0.057154626 0.079107106 0.10621819
0.043610994 -0.011430523 0.03192884 0.01897104 -0.06805782 -0.05040711 0.040293954 -0.0043622116
0.006231581 -0.029686283 0.06454846 -0.022429219 -0.016458595 0.071022615 0.10663181 0.09969894
0.06383186 0.027193699 0.07511122 0.101719365 0.05621605 0.046193257 0.047567356 0.019605758
0.08486762 0.045082986 -0.06080657 -0.029423848 -0.06110954 -0.002678265 0.017251119 -0.013513772
-0.06475642 -0.032182716 0.043387562 0.024236418 -0.015916359 0.044587415 -0.0022371972 -0.038663343
-0.032484278 -0.013960948 -0.04033443 -0.059600532 -0.009539484 0.053101473 0.10085817 0.0060410947
0.071982786 0.041433867 -0.055432636 -0.04008727 -0.02920984 -0.05467118 0.038817585 0.035585273
-0.06580194 -0.009139299 -0.068637736 0.10327071 0.060636066 -0.02249524 0.10594446 -0.03730178
0.0976034 -0.015652427 0.06009236 0.06783019 0.05551609 0.026037028 0.011593944 0.011024722
0.09274083 -0.003851894 -0.01916648 0.03476158 -0.029213298 -0.016758243 0.047210965 0.08257293
0.03993399 -0.065934844 0.04333597 -0.005791801 0.016891452 0.0017011669 0.061221916 -0.0145216435
-0.028215118 -0.022152675 0.0031843837 -0.015079324 0.072329834 -0.035568353 0.0355767 -0.05131431
-0.02146558 0.0051453216 -0.022447975 0.03478275 -0.06939448 -0.005155271 0.0058210082 -0.020698229
0.08404421 0.07242572 0.03311538 0.017725911 0.037092775 -0.009906796 -0.067889765 0.10628311
-0.044781826 0.041802377 -0.0055268407 0.095823124 0.10219686 -0.055473335 0.024921745 -0.066099145
0.06512053 0.07636274 -0.04473463 0.028851459 -0.0049119745 -0.016709255 0.08141009 -0.08742912
-0.032518554 0.014562103 -0.06617679 0.067776516 0.075119145 -0.061467495 0.053233497 -0.036848612
0.11045607 -0.06263796 0.092028044 -0.012301311 0.08256794 -0.030638985 0.028059991 0.03714248
0.03842001 0.009409176 0.062278986 0.0002582658 -0.056304257 -0.03320265 0.08099992 0.082763664
-0.044750176 0.055065237 0.011854753 -0.016977955 0.0352428 0.0176549 0.030483536 -0.075869195
0.0051788627 0.09853835 0.07175312 -0.060880944 0.007958076 0.058282115 -0.046936117 0.001768172
0.062366273 0.08326062 0.09869882 -0.047971122 -0.07574282 0.022702483 0.008288954 0.066639915
0.08127451 -0.014514617 0.03510497 0.022009665 -0.018112356 0.09539279 0.035134394 -0.012820009
-0.056978684 0.08403488 -0.06787457 0.08509274 -0.02018124 0.004182712 0.030559678 0.11507729
-0.034714352 -0.06907441 0.08123417 -0.029161314 -0.016142683 0.030735295 -0.047987003 0.06588708
-0.035392106 0.086234614 0.1043659 0.015422839 -0.047447983 0.036137577 0.042153638 -0.00048030543
00000000: c054 5bbd 3788 a93d a3a8 be3d 1d8e b23d
00000010: 455f a13b 3b44 233d bcf0 ee3c 6216 84bc
00000020: 07f5 94bd 6c61 b33b 3ae8 2a3d 41e9 983d
00000030: 92e2 2a3d 7300 463d 4caa 933d fe1f c93a
00000040: 31c9 aa3d 3815 6a3c df4a 54bc def5 74bc
00000050: c17d 02bd f63c 37bd 4443 143d 0b5c e23d
00000060: e391 003d 503e b63c 5578 2dbc fb11 81bc
00000070: 9593 0abc b1b1 873d dd1a 363d 60a2 29bc
00000080: 6b5c 8b3c 8543 0f3c 641c 293c 2c97 d33d
00000090: 287b 01bd a576 d83d 5bda e2bc 0853 cc3d
000000a0: 4350 383d ca85 6d3d 58d2 b63b 0ce0 93bb
000000b0: 0896 45bd f81a 6abd e802 a23d ec88 d93d
000000c0: 71a1 323d 1747 3bbc d1c7 023d 2869 9b3c
000000d0: e661 8bbd b077 4ebd 460b 253d e2f0 8ebb
000000e0: 4a32 cc3b a630 f3bc fc31 843d 7bbd b7bc
000000f0: 2dd4 86bc 4e74 913d c761 da3d f52e cc3d
00000100: 47ba 823d 52c5 de3c e9d3 993d 3e52 d03d
00000110: cd42 663d 2435 3d3d fdd5 423d 419c a03c
00000120: 13cf ad3d f0a8 383d 4f10 79bd 480a f1bc
00000130: ff4d 7abd d585 2fbb 3852 8d3c de68 5dbc
00000140: 049f 84bd 06d2 03bd 28b7 313d 748b c63c
00000150: 0663 82bc 4ba1 363d f19d 12bb 745d 1ebd
00000160: 3c0e 05bd 76bc 64bc b735 25bd b01f 74bd
00000170: 7f4b 1cbc ee80 593d ba8e ce3d 60f4 c53b
00000180: b66b 933d 8fb6 293d 550d 63bd 8d32 24bd
00000190: 7949 efbc e3ee 5fbd 30ff 1e3d ddc1 113d
000001a0: 2bc3 86bd 00bd 15bc f191 8cbd 987f d33d
000001b0: 865d 783d f047 b8bc 69f9 d83d c0c9 18bd
000001c0: 4be4 c73d 8539 80bc 6823 763d 8eea 8a3d
000001d0: d764 633d 9b4b d53c 87f4 3d3c 09a1 343c
000001e0: e7ee bd3d 0f70 7cbb 0603 9dbc 2962 0e3d
000001f0: ba50 efbc 9548 89bc 4960 413d ff1b a93d
00000200: d391 233d d908 87bd 0f81 313d 26c9 bdbb
00000210: f15f 8a3c b0f9 de3a d5c3 7a3d 30ec 6dbc
00000220: 6423 e7bc 8779 b5bc 18b1 503b 450f 77bc
00000230: aa21 943d 1fb0 11bd e0b8 113d f42e 52bd
00000240: 96d8 afbc 169a a83b d1e4 b7bc 5b78 0e3d
00000250: b11e 8ebd 8ced a8bb 28be be3b 558f a9bc
00000260: 5f1f ac3d f053 943d fea3 073d ee35 913c
00000270: 98ee 173d 1d50 22bc ca09 8bbd f6aa d93d
00000280: 266d 37bd f838 2b3d 801a b5bb ea3e c43d
00000290: 964c d13d 0238 63bd b028 cc3c fd5e 87bd
000002a0: ea5d 853d 1164 9c3d a93b 37bd e559 ec3c
000002b0: a1f4 a0bb d9e1 88bc 55ba a63d 0a0e b3bd
000002c0: 2d32 05bd e395 6e3c b287 87bd 6ace 8a3d
000002d0: 11d8 993d 57c5 7bbd 5e0b 5a3d 92ee 16bd
000002e0: cb36 e23d 5548 80bd 3379 bc3d 708b 49bc
000002f0: 6119 a93d 9cfe fabc 11de e53c b722 183d
00000300: 4d5e 1d3d f228 1a3c 4018 7f3d d967 8739
00000310: 4b9f 66bd 80ff 07bd 49e3 a53d ff7f a93d
00000320: f64b 37bd 168c 613d 703a 423c 5a15 8bbc
00000330: c15a 103d 02a1 903c 9cb8 f93c 4f61 9bbd
00000340: 73b3 a93b 79ce c93d 4df3 923d 4c5e 79bd
00000350: 9762 023c 3ab9 6e3d 1640 40bd 02c2 e73a
00000360: c773 7f3d 8b84 aa3d 9b22 ca3d 5e7d 44bd
00000370: 0d1f 9bbd 8ffa b93c 65ce 073c 827a 883d
00000380: 4073 a63d b7ce 6dbc 3bca 0f3d 9d4d b43c
00000390: 5d60 94bc 4c5d c33d 15e9 0f3d 040b 52bc
000003a0: 7b62 69bd 7b1a ac3d d301 8bbd 1a45 ae3d
000003b0: 2153 a5bc 220f 893b 4a58 fa3c a4ad eb3d
000003c0: a330 0ebd e276 8dbd 1a5e a63d b5e3 eebc
000003d0: a93d 84bc 96c8 fb3c 058e 44bd ceef 863d
000003e0: 50f7 10bd c69b b03d cabd d53d 13b0 7c3c
000003f0: d158 42bd ff04 143d 4ba9 2c3d 81d1 fbb9

encoder.2.bias f4 [96]
-0.03974924 0.016022487 0.060016725 0.019500412 0.12109859 0.1377907 0.06964446 -0.022464093
0.061668366 0.05534522 0.04226003 0.10594594 0.028126532 0.10225483 0.09296859 0.007361024
0.04538256 0.01922766 0.06968063 0.08943418 -0.07659503 0.029077563 0.086076155 0.03398458
0.16175032 0.1527664 0.01069318 0.062121198 0.054227557 0.0013658195 0.117847696 0.029375305
-0.032972325 0.06167993 -0.06720292 0.021430893 0.036715228 0.11843322 -0.009971316 0.08660851
0.12153405 0.024478445 0.038462985 0.00092777715 0.13809834 -0.043245297 -0.040023018 0.03497985
0.043520264 0.06667955 0.128165 0.14825457 0.03541524 0.0066503054 -0.055710934 0.039197605
-0.04850366 0.08508114 0.12822942 0.09808221 0.08732677 0.16828981 0.05735982 -0.0010793627
0.008598906 -0.056111146 -0.022231057 0.017944919 -0.036441877 -0.021577284 0.08465426 -0.04660407
-0.009104321 -0.05053611 0.028065884 0.08999187 -0.05945387 -0.051233035 0.05825041 0.11966058
0.08628247 0.12127063 0.039803524 0.08844069 0.14134492 0.026838226 0.051068686 0.051765278
0.057428934 -0.050565485 -0.0017985249 -0.0316736 0.04174752 0.15907633 -0.027862968 0.12019156
00000000: 19d0 22bd 9741 833c 19d4 753d 54bf 9f3c
00000010: 8a02 f83d 0119 0d3e c1a1 8e3d 9e06 b8bc
00000020: f897 7c3d abb1 623d da18 2d3d 2ffa d83d
00000030: 9d69 e63c fb6a d13d 5166 be3d bf34 f13b
00000040: 10e3 393d 5383 9d3c b8b4 8e3d 4429 b73d
00000050: dbdd 9cbd 1234 ee3c b248 b03d 6a33 0b3d
00000060: e0a1 253e cc6e 1c3e 7332 2f3c cc72 7e3d
00000070: b71d 5e3d 4c05 b33a 225a f13d 7ba4 f03c
00000080: fd0d 07bd 18a4 7c3d afa1 89bd d78f af3c
00000090: b562 163d 1e8d f23d bb5e 23bc cd5f b13d
000000a0: d8e6 f83d 0587 c83c 5d8b 1d3d 1236 733a
000000b0: a769 0d3e fb21 31bd 2def 23bd 0847 0f3d
000000c0: 4e42 323d 4a8f 883d b03d 033e 0cd0 173e
000000d0: 920f 113d ceea d93b 2631 64bd ab8d 203d
000000e0: c6ab 46bd 053f ae3d 934e 033e 53df c83d
000000f0: 61d8 b23d 2a54 2c3e 21f2 6a3d 6779 8dba
00000100: 6de2 0c3c cdd4 65bd e81d b6bc 3901 933c
00000110: 1444 15bd d8c2 b0bc 365f ad3d e9e3 3ebd
00000120: 4a2a 15bc f4fe 4ebd 6dea e53c a84d b83d
00000130: e785 73bd bbd9 51bd fb97 6e3d 9b10 f53d
00000140: ddb4 b03d bc5c f83d 0509 233d 6420 b53d
00000150: b9bc 103e d7db db3c 662d 513d d407 543d
00000160: 9a3a 6b3d c11d 4fbd 7bbc ebba 2dbc 01bd
00000170: 73ff 2a3d e8e4 223e e140 e4bc fe26 f63d

encoder.4.weight f4 [64, 96]
0.007762413 0.020489916 -0.038576484 -0.057994287 -0.047149256 0.032742545 -0.09423426 -0.093415245
0.1018879 0.0550549 -0.0117609 -0.014912769 0.12987301 -0.010620242 -0.09756547 0.05793673
0.12749231 0.039138664 0.08975416 -0.08289403 0.003584389 0.11906951 -0.081419565 -0.10314254
0.039418347 0.03863599 0.0044525415 0.014724502 0.08390412 0.06914313 -0.10144327 -0.091890216
0.08032669 -0.00652259 0.024544135 0.031424206 0.024637587 -0.029736323 -0.024161704 -0.06917314
0.07497414 -0.016668713 -0.099214286 -0.0953103 0.0668539 -0.0052235457 -0.09902374 -0.016302174
-0.021302199 0.008260402 0.036930263 0.053097494 -0.087098844 0.026314251 0.062458344 -0.0042855036
0.08943416 0.11669925 0.04398756 0.10400293 0.062419977 -0.049534563 0.06607486 -0.06111764
-0.088728964 -0.10281332 0.0071196537 0.10677155 -0.03262426 0.056949936 0.043734074 0.080667295
0.1270743 0.058489617 -0.053400703 -0.00015138455 -0.09134957 -0.075048245 -0.05982886 0.084990844
0.018517788 -0.0001753413 0.078477696 0.003300795 0.08117865 0.10547103 -0.057937097 0.11912181
0.07410853 -0.02222903 0.048073526 -0.0677876 -0.029349571 -0.04766885 -0.10011891 -0.013392767
-0.101725176 -0.019100212 0.065048456 -0.06296699 -0.033399366 0.004145406 -0.044330142 0.009379081
-0.09408789 0.027560145 0.09549819 0.0062497184 0.09945184 -0.08990654 -0.053026773 -0.031001188
0.08724815 -0.0934896 -0.018551238 -0.091403544 0.019631185 -0.08863993 -0.08382166 -0.06352118
-0.03919979 0.06480712 0.016507134 -0.09200528 0.09650767 -0.002071306 0.029808775 -0.052702483
-0.048120875 -0.07643842 -0.08025194 -0.052149322 0.056328595 -0.038842022 -0.08661021 0.029908746
-0.026812471 -0.07314623 0.08264959 -0.095240876 -0.0992578 0.05898778 0.056714356 -0.03906185
0.072141334 -0.067130834 -0.047996238 -0.014691956 -0.034163117 0.065990075 -0.09485994 0.0826377
0.05845812 -0.056270916 -0.053791173 0.015876696 -0.007760279 -0.090502106 0.083497226 0.080307186
0.08167085 0.048462465 -0.07104947 -0.053704083 -0.04309063 0.028310046 0.055016965 -0.004821308
-0.100419275 -0.06469147 -0.048801202 -0.06870215 0.052545115 0.004554242 -0.07284052 -0.061916724
-0.07456559 -0.0707065 0.038273454 -0.053615097 -0.08739378 0.007370971 -0.006119825 -0.08462209
0.027498066 0.008712448 0.013330154 0.04483244 -0.05151851 -0.08918558 0.065972775 0.092571765
0.1024271 0.05854506 0.11591944 0.063982494 -0.061786637 0.049817275 -0.059760746 -0.043043613
0.033823177 -0.04141752 -0.05437327 0.10348554 0.016791167 0.061507903 -0.036757287 -0.005360937
-0.0036536835 -0.0190793 -0.015843509 0.102563195 -0.036492363 -0.015799604 0.087351866 -0.011695006
0.082175635 -0.011925291 0.055416416 -0.079153225 -0.05623854 -0.032348234 -0.049747806 0.090819865
0.056270614 0.041324787 0.04573014 0.076745786 0.08386641 0.0831113 -0.084213816 0.093772754
0.08742065 0.057701692 -0.014511043 0.12475237 0.020137306 -0.09767159 -0.03296018 0.025493994
0.06679619 0.0030333584 0.04522373 0.11813177 0.08647044 -0.047724675 -0.07554395 0.011302353
0.0015244762 -0.05625828 -0.0067775105 0.105819635 -0.09243491 0.045013946 0.041496195 -0.008418689
00000000: d75b fe3b 78da a73c 6002 1ebd 6b8b 6dbd
00000010: 941f 41bd 0c1d 063d e4fd c0bd 7e50 bfbd
00000020: 9aaa d03d 3f81 613d cab0 40bc b054 74bc
00000030: 6efd 043e 8600 2ebc 68d0 c7bd 114f 6d3d
00000040: 588d 023e dd4f 203d 07d1 b73d 58c4 a9bd
00000050: 12e8 6a3b b7da f33d 4dbf a6bd 653c d3bd
00000060: 2275 213d c640 1e3d a0e6 913b 0a3f 713c
00000070: ecd5 ab3d ea9a 8d3d 7dc1 cfbd f030 bcbd
00000080: 5282 a43d 73bb d5bb c810 c93c abb6 003d
00000090: c4d4 c93c 9799 f3bc c4ee c5bc a6aa 8dbd
000000a0: 0b8c 993d d38c 88bc dc30 cbbd 0c32 c3bd
000000b0: b3ea 883d 472a abbb f5cc cabd 238c 85bc
000000c0: f381 aebc a356 073c 3044 173d c27c 593d
000000d0: e160 b2bd fc90 d73c 52d4 7f3d 696d 8cbb
000000e0: 4229 b73d 0400 ef3d 4d2c 343d 7dff d43d
000000f0: 17ac 7f3d c1e4 4abd 4252 873d 7e56 7abd
00000100: 88b7 b5bd ca8f d2bd fc4b e93b 0bab da3d
00000110: 04a1 05bd 5644 693d 8022 333d e534 a53d
00000120: c41f 023e cf92 6f3d b2ba 5abd fbbc 1eb9
00000130: 7c15 bbbd e5b2 99bd 1b0f 75bd ae0f ae3d
00000140: 9eb2 973c d2db 37b9 eab8 a03d 2752 583b
00000150: fe40 a63d 3201 d83d 734f 6dbd 23f6 f33d
00000160: 37c6 973d a819 b6bc bfe8 443d 3ad4 8abd
00000170: 836e f0bc 6940 43bd 250b cdbd 566d 5bbc
00000180: 4a55 d0bd 0c78 9cbc 2038 853d d6f4 80bd
00000190: c6cd 08bd 30d6 873b 8693 35bd b8aa 193c
000001a0: 27b1 c0bd d0c5 e13c 8e94 c33d 70ca cc3b
000001b0: 68ad cb3d ec20 b8bd 9a32 59bd 34f6 fdbc
000001c0: 28af b23d 7a77 bfbd c4f8 97bc c831 bbbd
000001d0: 94d1 a03c da88 b5bd b1aa abbd 6417 82bd
000001e0: f68f 20bd 98b9 843d f839 873c 446d bcbd
000001f0: d0a5 c53d c0be 07bb 8831 f43c 8fde 57bd
00000200: 651a 45bd bf8b 9cbd 215b a4bd 879a 55bd
00000210: d0b8 663d d018 1fbd b260 b1bd 3003 f53c
00000220: d4a5 dbbc b1cd 95bd 3044 a93d a60d c3bd
00000230: ac47 cbbd 2c9d 713d 504d 683d 52ff 1fbd
00000240: d6be 933d e47b 89bd b497 44bd 88b6 70bc
00000250: a0ee 0bbd ce25 873d ee45 c2bd f43d a93d
00000260: c871 6f3d 557c 66bd 2254 5cbd d80f 823c
00000270: f049 febb 2b59 b9bd 9800 ab3d 1878 a43d
00000280: 0c43 a73d 9480 463d 6282 91bd d0f8 5bbd
00000290: cd7f 30bd 78ea e73c 7859 613d 10fc 9dbb
000002a0: 9fa8 cdbd f67c 84bd c5e3 47bd b6b3 8cbd
000002b0: 8c39 573d c03b 953b 692d 95bd 649c 7dbd
000002c0: d8b5 98bd 92ce 90bd a0c4 1c3d 819b 5bbd
000002d0: 83fb b2bd 3088 f13b d088 c8bb 594e adbd
000002e0: a043 e13c a8be 0e3c b866 5a3c 38a2 373d
000002f0: 1305 53bd eea6 b6bd bc1c 873d 4496 bd3d
00000300: 4dc5 d13d f2cc 6f3d 2c67 ed3d 4109 833d
00000310: fc13 7dbd 330d 4c3d afc7 74bd 804e 30bd
00000320: 2c8a 0a3d 6ba5 29bd 82b6 5ebd 3af0 d33d
00000330: a18d 893c b6ef 7b3d cf8e 16bd cdaa afbb
00000340: a372 6fbb 314c 9cbc 3fca 81bc a70c d23d
00000350: 0479 15bd 2c6e 81bc 89e5 b23d 699c 3fbc
00000360: b34b a83d 4c62 43bc 53fc 623d 161b a2bd
00000370: 625a 66bd 957f 04bd 5bc4 4bbd c4ff b93d
00000380: 047c 663d 2e44 293d 874f 3b3d e52c 9d3d
00000390: 27c2 ab3d 4236 aa3d 4b78 acbd ee0b c03d
000003a0: 9909 b33d 9c58 6c3d babf 6dbc 2c7e ff3d
000003b0: fef6 a43c 0b08 c8bd 4101 07bd c8d8 d03c
000003c0: 71cc 883d 4fcb 463b 853c 393d 12ef f13d
000003d0: 6a17 b13d f37a 43bd c9b6 9abd 812d 393c
000003e0: efd0 c73a 156f 66bd e115 debb f7b7 d83d
000003f0: 844e bdbd 8b60 383d eaf7 293d 8aee 09bc

encoder.4.bias f4 [64]
0.011849377 -0.01721546 -0.012773989 -0.030184759 -0.006428145 0.05308961 0.08022772 -0.0014813908
0.060533654 0.048894424 0.03446874 0.120477416 -0.03887704 0.08007629 0.023532813 -0.00589014
0.024696304 0.08547128 0.09715193 0.041881215 0.0546342 0.073223785 0.02780653 -0.04971737
0.043159988 0.0121674845 0.079356745 0.029917901 0.02101884 0.07455954 0.15672022 0.04883853
0.09201491 -0.0031539619 0.07156573 -0.11734385 0.11300971 0.03683763 0.057597123 0.17115094
0.013480745 -0.018574227 -0.026918527 0.06811424 0.08024808 -0.0362385 -0.01743625 0.1320604
0.16935058 -0.07426937 -0.01578003 -0.013860331 -0.009623586 -0.015332391 0.11509006 0.024165506
-0.014740633 0.07627485 0.0068059023 0.039261118 -0.021630537 -0.032759096 0.014487868 -0.020881781
00000000: e423 423c 7007 8dbc fe49 51bc 0746 f7bc
00000010: 30a3 d2bb 7e74 593d 6e4e a43d 3a2b c2ba
00000020: 23f2 773d 8545 483d 182f 0d3d ddbc f63d
00000030: 883d 1fbd 0aff a33d e3c7 c03c 1302 c1bb
00000040: e74f ca3c 910b af3d 97f7 c63d a38b 2b3d
00000050: 1cc8 5f3d 5af6 953d 85ca e33c 71a4 4bbd
00000060: 87c8 303d 215a 473c ca85 a23d 6316 f53c
00000070: b42f ac3c acb2 983d 447b 203e e90a 483d
00000080: 5072 bc3d b3b2 4ebb 0e91 923d f951 f0bd
00000090: a371 e73d 0ee3 163d f6ea 6b3d 3142 2f3e
000000a0: 58de 5c3c fa28 98bc 3e84 dcbc 7b7f 8b3d
000000b0: 1b59 a43d d26e 14bd 77d6 8ebc d73a 073e
000000c0: 3d6a 2d3e 8a1a 98bd 1f45 81bc 7116 63bc
000000d0: 3fac 1dbc b534 7bbc 56b4 eb3d bdf6 c53c
000000e0: b282 71bc fd35 9c3d 0c04 df3b 44d0 203d
000000f0: 8632 b1bc 672e 06bd 865e 6d3c 4510 abbc

encoder.6.weight f4 [32, 64]
0.12948571 0.034282506 0.10583262 0.16078553 0.047417134 -0.00027251654 0.010925251 -0.05244592
0.07286122 -0.09238222 0.12103281 0.05904469 -0.015062305 0.102267675 0.020972222 0.09852771
-0.03526804 -0.0808005 -0.021611791 0.10391205 0.06942665 -0.044282097 0.0021546455 0.07683573
-0.10474332 0.062343627 0.046260003 0.06428529 -0.12705086 0.043233715 0.042484682 0.13079338
0.14235309 -0.011507149 0.14460406 -0.12351782 0.011975576 0.033905864 -0.10780291 0.10114214
0.14108437 -0.046734888 -0.06463763 0.04648714 0.13004479 -0.008600017 -0.05011822 0.075552166
0.12588452 0.114953384 0.14738093 0.12568521 0.067506716 -0.12217942 0.15113507 -0.020012697
-0.082792826 -0.0720174 -0.064291224 -0.07360864 0.024364028 0.0839583 -0.09986872 -0.07660888
0.057161987 0.028357595 0.046305843 -0.07260647 0.03567788 -0.05821228 0.10326874 0.027991662
-0.10427638 0.056493577 0.12230441 -0.07039115 0.0324376 -0.061538007 -0.09134397 0.049042642
0.07372654 0.115213625 0.018295335 0.003001785 -0.0030093696 0.07619579 -0.007515679 0.018947003
-0.024183333 -0.048360106 0.0577089 0.04786559 0.041545097 -0.031834517 0.02610086 0.03285097
0.0006499177 -0.038475104 -0.049043763 -0.06752574 -0.05852536 -0.12669283 0.035757244 -0.07228824
-0.09469984 0.011779684 -0.10138641 -0.12205126 0.056901064 0.061325002 -0.021096474 -0.116457
0.087449275 0.09984609 0.12334303 0.05666315 0.106372625 -0.08621515 -0.14195581 -0.1119212
0.105564564 -0.10092926 -0.05423846 0.14527841 0.12109183 0.020953715 0.12053285 0.019475667
0.056559563 -0.020993829 0.119651176 -0.03134035 0.1742073 -0.1158891 -0.024712605 0.13375114
0.068681195 0.060551003 -0.02242268 -0.00358731 0.11334673 0.11381841 0.039712742 0.022723258
-0.08129222 0.13405131 0.046585713 0.06388101 -0.016340202 0.124635704 0.11422429 -0.049980767
0.030672273 0.013311818 -0.058556218 -0.039165504 -0.021481434 0.10832891 0.013943765 -0.02751966
-0.014745163 -0.10937515 -0.028476339 -0.06759203 0.14856794 -0.09962521 0.062560044 0.02664684
0.12159022 -0.139373 0.004513099 0.007239495 0.15019487 -0.09245356 0.1271895 0.2054006
0.20376112 -0.0015851583 0.04433567 0.13101585 0.10853801 -0.012807471 -0.00054615573 0.11616595
-0.104644604 0.063572265 0.041131172 -0.07266799 -0.050704837 -0.07677885 -0.04113666 -0.086386375
0.06772947 -0.036796138 -0.01765506 0.08647505 -0.058262672 -0.023594802 -0.0459996 -0.040501285
0.074133776 0.054794546 -0.03925851 -0.02338489 -0.052212965 0.009851706 0.007387408 0.00010265543
0.013938725 0.023757072 0.06082055 0.01542572 -0.028495058 0.050387446 0.119300425 0.044213448
-0.07038332 -0.012933164 -0.07019087 0.12723011 -0.08378716 -0.03145182 0.086774684 0.118632965
0.095212765 -0.043507755 0.112969324 0.038269 -0.0916098 0.014148749 -0.112105034 -0.011149623
0.050078817 -0.09470908 0.018248694 0.10788607 0.033363372 0.15125073 -0.024503384 0.018085498
-0.09110595 -0.035076965 0.0592554 0.1298663 0.115948536 -0.01767736 0.14615609 0.035616502
0.10479082 0.085643485 -0.054867577 0.14319703 0.06258428 -0.04275156 -0.12155739 0.03864722
00000000: e797 043e d06b 0c3d c6be d83d f6a4 243e
00000010: 7838 423d 8de0 8eb9 d3ff 323c 88d1 56bd
00000020: 4338 953d e432 bdbd 0de0 f73d d8d8 713d
00000030: e3c7 76bc b771 d13d f0cd ab3c e5c8 c93d
00000040: 3875 10bd bc7a a5bd 360b b1bc d7cf d43d
00000050: 8f2f 8e3d 2561 35bd f434 0d3b 0d5c 9d3d
00000060: aa83 d6bd 085c 7f3d 217b 3d3d 02a8 833d
00000070: 9f19 02be d615 313d 6b04 2e3d b3ee 053e
00000080: 02c5 113e 7b88 3cbc 1613 143e e9f6 fcbd
00000090: 3535 443c e0e0 0a3d c6c7 dcbd 9c23 cf3d
000000a0: 6c78 103e 156d 3fbd bc60 84bd 4d69 3e3d
000000b0: 762a 053e 16e7 0cbc c348 4dbd 18bb 9a3d
000000c0: dfe7 003e ae6c eb3d 07eb 163e a0b3 003e
000000d0: f640 8a3d 3439 fabd 27c3 1a3e abf1 a3bc
000000e0: 498f a9bd dc7d 93bd 1eab 83bd 20c0 96bd
000000f0: 1297 c73c 54f2 ab3d f987 ccbd 1ee5 9cbd
00000100: b022 6a3d 304e e83c 32ab 3d3d b3b2 94bd
00000110: f822 123d 0070 6ebd 907e d33d c54e e53c
00000120: db8e d5bd cf65 673d bc7a fa3d 3c29 90bd
00000130: 4add 043d 470f 7cbd 8c12 bbbd f0e0 483d
00000140: f1fd 963d 1ff5 eb3d 19e0 953c 98b9 443b
00000150: d838 45bb 8a0c 9c3d 1646 f6bb bf36 9b3c
00000160: 201c c6bc 3f15 46bd 2b60 6c3d b50e 443d
00000170: 312b 2a3d e964 02bd 79d1 d53c bd8e 063d
00000180: 3d5f 2a3a 1298 1dbd 1de2 48bd ef4a 8abd
00000190: 4ab8 6fbd c4bb 01be 3076 123d db0b 94bd
000001a0: fdf1 c1bd 93ff 403c aea3 cfbd 03f6 f9bd
000001b0: 1711 693d ed2f 7b3d 83d2 acbc 0281 eebd
000001c0: 9b18 b33d 1b7c cc3d 459b fc3d 9f17 683d
000001d0: e4d9 d93d 9291 b0bd dd5c 11be f136 e5bd
000001e0: 3c32 d83d 00b4 cebd 2629 5ebd ddc3 143e
000001f0: fefe f73d 20a7 ab3c edd9 f63d 6f8b 9f3c
00000200: 00ab 673d 40fb abbc ad0b f53d bd5e 00bd
00000210: 6663 323e 4457 edbd 1772 cabc 0ff6 083e
00000220: baa8 8c3d 5404 783d c5af b7bc 1319 6bbb
00000230: 5522 e83d a019 e93d d4a9 223d 2026 ba3c
00000240: 897c a6bd bf44 093e a9d0 3e3d 0cd4 823d
00000250: e3db 85bc 0141 ff3d 6dee e93d a2b8 4cbd
00000260: 6b44 fb3c d019 5a3c a5d8 6fbd 026c 20bd
00000270: d5f9 afbc 8cdb dd3d 6474 643c e970 e1bc
00000280: b295 71bc 1400 e0bd 3647 e9bc b16d 8abd
00000290: 3222 183e 4d08 ccbd 7b1f 803d 794a da3c
000002a0: 4b04 f93d ccb7 0ebe 9ee2 933b 4939 ed3b
000002b0: afcc 193e 4b58 bdbd f73d 023e 8954 523e
000002c0: c1a6 503e 16c5 cfba 5299 353d 0529 063e
000002d0: 2d49 de3d 6dd6 51bc e42b 0fba 6ae8 ed3d
000002e0: e94f d6bd 2d32 823d 2979 283d f5d2 94bd
000002f0: e0af 4fbd 3b3e 9dbd ea7e 28bd 57eb b0bd
00000300: c0b5 8a3d 8cb7 16bd 58a1 90bc d519 b13d
00000310: d7a4 6ebd e349 c1bc 146a 3cbd ade4 25bd
00000320: 73d3 973d 3f70 603d 88cd 20bd ab91 bfbc
00000330: 43dd 55bd 0d69 213c 1212 f23b b748 d738
00000340: 405f 643c 319e c23c f81e 793d 29bc 7c3c
00000350: 786e e9bc 1163 4e3d c853 f43d 2919 353d
00000360: 2125 90bd 9fe5 53bc 3bc0 8fbd 9c48 023e
00000370: 9a98 abbd a0d3 00bd edb6 b13d d7f5 f23d
00000380: e9fe c23d 3035 32bd 765c e73d f4bf 1c3d
00000390: eb9d bbbd 28d0 673c 5397 e5bd e9ac 36bc
000003a0: 721f 4d3d d6f6 c1bd 497e 953c 5ff3 dc3d
000003b0: 08a8 083d 79e1 1a3e 52bb c8bc 0a28 943c
000003c0: c295 babd ddac 0fbd cab5 723d acfb 043e
000003d0: 6d76 ed3d 1cd0 90bc f1a9 153e 9ce2 113d
000003e0: 929c d63d da65 af3d d3bc 60bd 3ea2 123e
000003f0: 302c 803d 431c 2fbd 15f3 f8bd 8c4c 1e3d

encoder.6.bias f4 [32]
0.14071226 -0.10034077 0.1625891 0.05806262 0.017328558 0.045697205 0.066438876 -0.056321993
0.049452793 -0.13198704 0.07324029 0.009521654 -0.014162331 0.09010128 0.12684073 0.0026947863
0.0292819 0.060151313 0.08033957 0.04636945 0.03488104 -0.16584973 0.09723571 -0.050141525
-0.06650776 0.101381555 -0.060247507 0.13630399 0.12137814 -0.07567164 0.04485709 0.09482368
00000000: e016 103e 767f cdbd c27d 263e 12d3 6d3d
00000010: 9ff4 8d3c fe2c 3b3d 1b11 883d e4b1 66bd
00000020: 038f 4a3d 9c27 07be 01ff 953d b600 1c3c
00000030: 1f09 68bc 0587 b83d 89e2 013e 039b 303b
00000040: 98e0 ef3c 3961 763d 1389 a43d e4ed 3d3d
00000050: 6cdf 0e3d 83d4 29be 8423 c73d 3361 4dbd
00000060: 3835 88bd 22a1 cf3d 17c6 76bd 4693 0b3e
00000070: 1a95 f83d bcf9 9abd 11bc 373d eb32 c23d

fc_mu.weight f4 [2, 32]
-0.15080483 0.013800982 0.013302777 -0.17884943 0.05059244 0.16815162 0.12216479 0.07693224
0.0064832503 -0.036009356 0.053537402 0.009540886 0.10925686 -0.13549693 -0.044638302 -0.15752965
0.15467235 0.120866306 -0.18597057 -0.010373541 0.14746408 -0.015862195 0.17614941 -0.038130675
0.17442104 0.007001436 0.10910964 -0.15610312 0.1885047 0.0077936472 0.13427407 0.06563868
0.093112454 -0.008311437 -0.22239971 0.125733 -0.11934007 0.070228525 0.124637075 -0.049310103
0.16222961 -0.07674242 -0.21943142 -0.19099975 -0.060783446 0.074004486 -0.115530044 -0.00685671
0.015729865 0.14152302 -0.122658394 0.057939347 0.22265324 -0.03286326 0.0007578715 0.14592755
0.15592617 0.14152679 -0.1470475 -0.022468472 -0.1707882 -0.07433246 -0.087716095 0.032892276
00000000: 956c 1abe 841d 623c e4f3 593c 4e24 37be
00000010: 053a 4f3d f02f 2c3e 8931 fa3d a68e 9d3d
00000020: 7271 d43b 8c7e 13bd 094a 5b3d 6051 1c3c
00000030: 10c2 df3d b5bf 0abe a7d6 36bd 744f 21be
00000040: 6e62 1e3e c188 f73d 126f 3ebe c9f5 29bc
00000050: d300 173e 6ff1 81bc 8360 343e e92e 1cbd
00000060: 6e9b 323e 4d6c e53b e074 df3d 7fd9 1fbe
00000070: 6007 413e da61 ff3b 247f 093e 926d 863d
00000080: beb1 be3d b22c 08bc c0bc 63be 27c0 003e
00000090: 9168 f4bd f9d3 8f3d b941 ff3d 64f9 49bd
000000a0: 851f 263e 212b 9dbd a1b2 60be 7095 43be
000000b0: 10f8 78bd aa8f 973d 049b ecbd 41ae e0bb
000000c0: ebdb 803c 69eb 103e 5334 fbbd cf51 6d3d
000000d0: 36ff 633e a09b 06bd e5ab 463a 086e 153e
000000e0: 1cab 1f3e 66ec 103e 9f93 16be cd0f b8bc
000000f0: 1ae3 2ebe 9e3b 98bd 7fa4 b3bd 0dba 063d

fc_mu.bias f4 [2]
0.17042147 0.09098254
00000000: f782 2e3e 0e55 ba3d

fc_logvar.weight f4 [2, 32]
-0.2043943 0.098714374 -0.14297748 -0.17692274 0.1369603 0.15803583 -0.123044215 -0.16433819
0.07258138 0.17219104 0.042273384 0.07055508 -0.14026305 0.05995507 -0.097773075 -0.09258413
-0.19672856 0.15156718 0.16428994 -0.12726267 0.09542264 0.17057785 0.020664478 -0.120997876
-0.0030145587 -0.086295135 0.13767152 -0.11969762 -0.18986902 -0.17012027 -0.10041307 -0.10327966
-0.08691165 -0.068724856 -0.18304054 -0.10250635 -0.0068224175 0.061008193 0.14548862 0.0052742213
-0.0016407188 -0.11297521 0.053758554 0.07807959 -0.106972486 -0.09700624 -0.13428828 -0.07027491
-0.101851225 0.06911861 -0.06590765 -0.15989463 -0.056784924 0.0062513635 0.11881871 -0.12732913
-0.042699303 0.1331108 0.16212432 0.12688944 -0.06374996 -0.042457297 0.14000744 0.15191159
00000000: bd4c 51be c32a ca3d b068 12be 3c2b 35be
00000010: 523f 0c3e 25d4 213e 9bfe fbbd 4548 28be
00000020: 8ca5 943d d952 303e db26 2d3d 2f7f 903d
00000030: 1ea1 0fbe 7393 753d 403d c8bd c09c bdbd
00000040: 3673 49be 6d34 1b3e 9f3b 283e 2551 02be
00000050: f26c c33d f6ab 2e3e 8d48 a93c bccd f7bd
00000060: e78f 45bb 81bb b0bd c3f9 0c3e 0724 f5bd
00000070: 066d 42be 0234 2ebe 5ea5 cdbd 4984 d3bd
00000080: bcfe b1bd 9ebf 8cbd fb6e 3bbe d9ee d1bd
00000090: 968e dfbb bae3 793d f8fa 143e 60d3 ac3b
000000a0: 630d d7ba 8c5f e7bd ee31 5c3d 31e8 9f3d
000000b0: 6414 dbbd 35ab c6bd de82 09be 4bec 8fbd
000000c0: 6097 d0bd 0f8e 8d3d 97fa 86bd 6bbb 23be
000000d0: 4f97 68bd 3dd8 cc3b 3957 f33d 9162 02be
000000e0: 77e5 2ebd 334e 083e eb03 263e 4eef 013e
000000f0: 578f 82bd b4e7 2dbd 1c5e 0f3e b68e 1b3e

fc_logvar.bias f4 [2]
0.012447183 -0.0051515205
00000000: 45ef 4b3c 16ce a8bb

decoder.0.weight f4 [32, 2]
0.11026709 -0.40806675 0.57257766 -0.10317963 -0.6662384 0.17685214 0.29206827 0.436406
-0.07763058 0.19312835 0.24296318 -0.17642152 -0.5809798 0.7253693 0.35328087 0.22362007
-0.58380896 0.14611246 0.090109736 0.44893593 0.7523385 -0.1709015 -0.73794246 -0.57392824
0.5395801 0.09071988 0.46372804 -0.35244143 0.3220197 -0.04023974 -0.14844362 0.08071418
0.0969676 -0.03152169 -0.30492675 -0.36602977 -0.18653654 -0.49504608 -0.334362 0.009864465
-0.38386086 0.17431857 0.38920718 0.18789497 -0.29057437 0.06681007 -0.42363653 0.6218458
0.60473615 0.6428711 -0.25438526 0.50918967 0.1643588 -0.10935986 0.5213468 -0.45047358
-0.69460547 0.67456204 0.29670435 0.44374374 -0.72836995 0.12917553 0.35654095 -0.2219046
00000000: b6d3 e13d 20ee d0be 7394 123f d84f d3bd
00000010: 9a8e 2abf ba18 353e f989 953e 9b70 df3e
00000020: c8fc 9ebd 70c3 453e 57cb 783e d8a7 34be
00000030: 18bb 14bf cdb1 393f 3be1 b43e a9fc 643e
00000040: 8174 15bf 819e 153e 748b b83d eeda e53e
00000050: 4299 403f ce00 2fbe cce9 3cbf f6ec 12bf
00000060: ec21 0a3f 58cb b93d c36d ed3e 3473 b4be
00000070: c4df a43e 6dd2 24bd 9b01 18be 7a4d a53d
00000080: f396 c63d e31c 01bd 5c1f 9cbe 4168 bbbe
00000090: 6f03 3fbe ae76 fdbe 7f31 abbe 919e 213c
000000a0: 6989 c4be 9180 323e 2a46 c73e 8a67 403e
000000b0: 2ac6 94be b8d3 883d e3e6 d8be 4931 1f3f
000000c0: fdcf 1a3f 3393 243f c93e 82be 415a 023f
000000d0: ac4d 283e 10f8 dfbd fc76 053f 79a4 e6be
000000e0: aad1 31bf 19b0 2c3f a2e9 973e 6132 e33e
000000f0: 7476 3abf 9746 043e 898c b63e f63a 63be

decoder.0.bias f4 [32]
-0.39802772 0.59687895 0.21633789 0.38637564 0.7229276 -0.47989643 0.52676046 -0.21167468
0.2845706 0.48842746 0.53479093 0.2708837 0.11845798 0.033099946 -0.17223093 0.4482629
0.7816983 0.08804732 -0.6037543 -0.12256156 -0.18896495 0.33381498 -0.48341998 -0.17012864
-0.2637418 -0.5314809 -0.3113696 0.44274777 0.16557197 0.61274445 0.014769846 0.39780158
00000000: 4aca cbbe 0fcd 183f ae87 5d3e 07d3 c53e
00000010: c811 393f fcb4 f5be c6d9 063f 3fc1 58be
00000020: 3db3 913e 2a13 fa3e 0fe8 083f 45b1 8a3e
00000030: 199a f23d cf93 073d 4e5d 30be b782 e53e
00000040: 611d 483f 2752 b43d a48f 1abf 8e01 fbbd
00000050: 0780 41be cce9 aa3e d382 f7be 3436 2ebe
00000060: 2a09 87be 220f 08bf d66b 9fbe d6af e23e
00000070: b38b 293e d2dc 1c3f 39fd 713c a6ac cb3e

decoder.2.weight f4 [64, 32]
0.13394219 0.15982701 0.041283656 0.14454387 0.048791368 -0.029338552 0.12547264 0.035933994
-0.05631119 -0.03561701 -0.12341045 0.23708968 0.059438962 0.19897553 -0.13049036 0.24150015
0.24266104 0.24061157 -0.0525869 0.19496468 -0.10515348 -0.102943905 -0.0812633 0.21831848
-0.075083554 0.10367447 0.012591451 0.15249623 0.156645 0.18486914 0.15435363 0.20094605
0.18798517 0.08886556 0.18659936 0.15208569 0.133489 -0.074608564 0.18857346 -0.02022495
0.17079215 -0.029172933 -0.14051868 -0.04039398 -0.014430056 -0.08621294 -0.09358868 0.15362437
0.11854135 0.020307 0.02882266 -0.11603343 0.047856357 -0.00079702545 -0.09948934 0.21390124
-0.12167529 0.06916778 -0.12781493 0.07792237 -0.07582103 0.012127234 0.13670118 0.18606369
0.020652747 -0.0025355036 0.070267454 -0.11975233 0.039360978 -0.15191916 -0.032057043 -0.0014106594
-0.020972623 0.05896887 -0.14171232 0.096838266 -0.11956213 -0.1502278 -0.024234623 -0.00021099752
-0.11492865 0.21159427 -0.007162114 0.020370971 0.08365792 -0.09946958 0.13676634 0.21355386
-0.029044889 -0.014219801 0.11201827 0.02448674 0.12637544 0.011522666 -0.05113962 -0.17145507
-0.061197184 -0.14947267 -0.15321632 0.103159204 -0.011470735 -0.0055131614 -0.13415356 0.09259312
0.13754176 0.109742895 -0.106445104 0.016944814 -0.084662646 0.081387706 0.0942757 -0.09265733
-0.12621881 -0.1256099 0.07478983 0.04253927 0.123471394 -0.02522482 0.13817681 0.16297539
-0.13635886 -0.03017354 0.019711118 0.1096249 -0.15765819 0.07717897 0.013447686 0.12948729
-0.13808931 0.18103677 0.090446234 0.034939036 -0.059558555 0.118859805 -0.06713011 0.0144028915
-0.14246328 0.18168199 0.1610953 -0.01830771 0.06304486 -0.081364766 0.18215758 0.0473831
0.065531194 0.022403842 -0.16991743 -0.07392725 0.09699919 -0.013343619 0.17790659 -0.13628475
0.18290529 0.17294642 -0.12021153 0.17211199 0.031786557 0.11944374 -0.09081038 0.15739983
0.036117118 -0.1314766 0.2060767 0.0125609515 -0.015709998 0.04215342 0.06908845 -0.14941688
0.22308563 0.004652205 0.056005023 0.0033496425 -0.15976107 -0.13952214 -0.048167992 -0.023947556
0.15072061 0.060789388 0.19143498 0.2008462 0.08765871 -0.058613036 0.05537004 -0.0009559053
-0.1603835 0.106772766 0.07007551 -0.04748471 0.21470334 0.02936173 0.047581103 -0.042227518
0.22917007 0.14643927 -0.074483335 -0.14500438 -0.126304 0.22243488 0.16373003 0.06825817
0.13600108 -0.13927864 0.18234767 0.050245754 0.016731942 0.08791751 -0.007292247 0.1953316
0.062349245 0.18170801 -0.047439337 -0.09010269 -0.012669771 0.066854194 -0.04553173 -0.086871885
0.023713814 0.16274472 0.21440575 0.23365441 -0.013312393 -0.12939568 0.117060214 -0.033521798
0.22292514 0.08517699 -0.17138176 0.022125632 -0.11594776 0.13000846 -0.09444979 0.010776564
0.110758655 -0.11983347 0.16646041 0.08184017 0.050290514 0.20171325 -0.067020305 -0.1623957
-0.03807241 0.126732 -0.10443996 0.057634786 -0.1199756 0.043562062 0.14860125 0.12626085
0.092349954 -0.08024143 0.14967903 0.19766968 -0.15274742 0.06759904 -0.099413246 0.13012658
00000000: 2428 093e b1a9 233e 0d19 293d 4f03 143e
00000010: 75d9 473d 6757 f0bc e67b 003e 862f 133d
00000020: 90a6 66bd 24e3 11bd 9ebe fcbd a3c7 723e
00000030: 4576 733d 3ec0 4b3e 449f 05be d14b 773e
00000040: 237c 783e e162 763e 5c65 57bd d2a4 473e
00000050: b55a d7bd 41d4 d2bd 5f6d a6bd e18e 5f3e
00000060: 68c5 99bd 4853 d43d 604c 4e3c f927 1c3e
00000070: 8c67 203e 564e 3d3e e10e 1e3e cdc4 4d3e
00000080: 2f7f 403e 26ff b53d e713 3f3e 5abc 1b3e
00000090: 57b1 083e 60cc 98bd 6719 413e cbae a5bc
000000a0: 23e4 2e3e 13fc eebc 21e4 0fbe 2874 25bd
000000b0: 0b6c 6cbc 6990 b0bd 6cab bfbd b54f 1d3e
000000c0: cfc5 f23d de5a a63c 801d ec3c efa2 edbd
000000d0: 0705 443d 79ef 50ba 11c1 cbbd ed08 5b3e
000000e0: e530 f9bd d6a7 8d3d ebe1 02be c395 9f3d
000000f0: 0e48 9bbd 4eb1 463c 65fb 0b3e 7b87 3e3e
00000100: f32f a93c b12a 26bb 62e8 8f3d b640 f5bd
00000110: fa38 213d b290 1bbe 3f4e 03bd e0e5 b8ba
00000120: c7ce abbc 5889 713d 091d 11be 2453 c63d
00000130: fddc f4bd 51d5 19be b087 c6bc 373f 5db9
00000140: b65f ebbd 2bac 583e 2bb0 eabb 06e1 a63c
00000150: d854 ab3d b5b6 cbbd 7a0c 0c3e ddad 5a3e
00000160: 8cef edbc 2bfa 68bc d669 e53d 6a98 c83c
00000170: 9068 013e 90c9 3c3c c777 51bd eb91 2fbe
00000180: e6a9 7abd 5d0f 19be bde4 1cbe 2245 d33d
00000190: c0ef 3bbc c0a7 b4bb 8d5f 09be 76a1 bd3d
000001a0: bfd7 0c3e e2c0 e03d e4ff d9bd dacf 8a3c
000001b0: 9c63 adbd 99ae a63d 9e13 c13d 20c3 bdbd
000001c0: 813f 01be e29f 00be 692b 993d a83d 2e3d
000001d0: 92de fc3d 48a4 cebc 397e 0d3e 05e3 263e
000001e0: a8a1 0bbe 802e f7bc 3679 a13c 0583 e03d
000001f0: 2671 21be 0210 9e3d af53 5c3c 5198 043e
00000200: 4967 0dbe b461 393e e03b b93d 3c1c 0f3d
00000210: acf3 73bd c56c f33d 837b 89bd 1bfa 6b3c
00000220: e5e1 11be d80a 3a3e 2bf6 243e 0dfa 95bc
00000230: aa1d 813d 92a2 a6bd 8487 3a3e c814 423d
00000240: 3835 863d 4388 b73c d6fe 2dbe 2c67 97bd
00000250: 83a7 c63d 329f 5abc 252d 363e 3b8e 0bbe
00000260: 864b 3b3e de18 313e 7631 f6bd 203e 303e
00000270: 9f32 023d eb9e f43d cbfa b9bd 6c2d 213e
00000280: 8bef 133d cda1 06be c505 533e 73cc 4d3c
00000290: 41b2 80bc 11a9 2c3d 3f7e 8d3d bd00 19be
000002a0: 8f70 643e 8671 983b 8665 653d ad85 5b3b
000002b0: 6898 23be e4de 0ebe cd4b 45bd aa2d c4bc
000002c0: 8156 1a3e 4bfe 783d 8807 443e a0aa 4d3e
000002d0: 6986 b33d 3914 70bd b2cb 623d b895 7aba
000002e0: 923b 24be aeab da3d c083 8f3d 547f 42bd
000002f0: 31db 5b3e 0388 f03c 67e4 423d c3f6 2cbd
00000300: 8fab 6a3e 2df4 153e b88a 98bd 077c 14be
00000310: d655 01be f8c5 633e d8a8 273e f0ca 8b3d
00000320: de43 0b3e 0f9f 0ebe 59b9 3a3e 7ece 4d3d
00000330: 6d11 893c 180e b43d cdf3 eebb 0205 483e
00000340: ec61 7f3d aa11 3a3e c04f 42bd c287 b8bd
00000350: df94 4fbc daea 883d 7b7f 3abd e3e9 b1bd
00000360: 7943 c23c 8da6 263e 2e8d 5b3e 1a43 6f3e
00000370: 391c 5abc 4d80 04be 44bd ef3d 274e 09bd
00000380: 7d46 643e 4671 ae3d b37e 2fbe d040 b53c
00000390: 0576 edbd f020 053e e46e c1bd 2f90 303c
000003a0: 6fd5 e23d 406b f5bd 9974 2a3e d29b a73d
000003b0: 6dfd 4d3d eb8d 4e3e f141 89bd 0f4b 26be
000003c0: d1f1 1bbd 09c6 013e 9ee4 d5bd 7412 6c3d
000003d0: c4b5 f5bd 226e 323d ed2a 183e 864a 013e
000003e0: f921 bd3d 9e55 a4bd 7645 193e ec69 4a3e
000003f0: d269 1cbe 5e71 8a3d 2c99 cbbd e73f 053e

decoder.2.bias f4 [64]
-0.07683412 -0.024745543 -0.06640471 -0.056147933 -0.053021803 -0.00156128 0.0855755 -0.08004351
-0.083604895 0.16590127 0.092762984 -0.088412926 0.015575696 -0.13846394 0.028096624 -0.13157447
-0.16533603 0.25574273 -0.10772473 -0.057359252 0.06456867 -0.02498269 0.06429088 0.17699094
0.013577513 -0.101582885 0.008719467 0.10508708 0.17999122 -0.045905083 -0.12638192 0.0366547
-0.11048145 -0.038396746 0.17010513 0.029645799 0.15581924 -0.09403156 0.087816186 0.022987569
-0.14361423 -0.055225257 0.056418795 0.09435041 0.16500512 -0.13902874 0.12193366 0.08388607
-0.03552072 -0.014909294 -0.085517526 -0.121084176 0.16766633 -0.13341808 0.070903495 -0.046306036
-0.11492782 0.062246684 0.036883183 -0.030543394 -0.104059845 0.066360466 0.06262135 0.061636254
00000000: 355b 9dbd 2ab7 cabc 31ff 87bd 60fb 65bd
00000010: 642d 59bd dda3 ccba 3542 af3d daed a3bd
00000020: 0b39 abbd 06e2 293e 85fa bd3d d611 b5bd
00000030: 3431 7f3c 7ec9 0dbe e42a e63c 75bb 06be
00000040: d94d 29be b6f0 823e c99e dcbd 89f1 6abd
00000050: 943c 843d 80a8 ccbc f0aa 833d 1d3d 353e
00000060: 3874 5e3c b00a d0bd 18dc 0e3c e537 d73d
00000070: 9e4f 383e f806 3cbd 436a 01be 3d23 163d
00000080: 1944 e2bd e845 1dbd 0a30 2e3e bfdb f23c
00000090: 148f 1f3e 9e93 c0bd f9d8 b33d 6d50 bc3c
000000a0: 9c0f 13be e133 62bd 6517 673d ca3a c13d
000000b0: 1af7 283e 8d5d 0ebe 5bb8 f93d 76cc ab3d
000000c0: 2d7e 11bd 1d46 74bc d023 afbd fbfa f7bd
000000d0: b9b0 2b3e c09e 08be da35 913d 66ab 3dbd
000000e0: 475f ebbd 61f6 7e3d d212 173d 2436 fabc
000000f0: 541d d5bd ffe7 873d 9f3f 803d 4c76 7c3d
